mnist_model.pth (torch, 32944 bytes, 2 tensors)

fc.weight f4 [10, 784]
0	0xbd03c28e	-0.032167964
1	0x3bbb725a	0.005720419
2	0xbc98001e	-0.018554743
3	0xbcc9b863	-0.024624055
4	0x3c343cff	0.011000871
5	0x3c03085f	0.007997601
6	0xbcde48ee	-0.027134385
7	0x3be19854	0.006884614
8	0xbbfe3299	-0.0077574966
9	0xbc53b0db	-0.012920584
10	0xbcdd88ee	-0.027042832
11	0x3bc11d92	0.0058934176
12	0xbccad432	-0.024759386
13	0xbb9f1ed5	-0.0048559704
14	0xbb9d1bc0	-0.004794568
15	0xbca60965	-0.020268152
16	0x3d008de1	0.031385306
17	0xbce6d443	-0.028177386
18	0xbcf0d7ac	-0.029399715
19	0xbcfd7c3c	-0.030943029
20	0xbc53556d	-0.012898785
21	0x3cd9657f	0.026537655
22	0xbc97ac47	-0.018514765
23	0xbd035cbb	-0.032070857
24	0xbbaaceeb	-0.005212655
25	0xbcc5da99	-0.024152087
26	0x3ccbb0e1	0.024864616
27	0xbc215ecc	-0.0098492615
28	0xbc2e597b	-0.010641451
29	0x3cf26f79	0.02959417
30	0x3c3ab06f	0.011394604
31	0xbcc2fee5	-0.023803184
32	0xbd1000a6	-0.03515687
33	0xbcd0680b	-0.025440237
34	0xbcb10149	-0.021607058
35	0x3cd2444e	0.025667336
36	0xba8e67e3	-0.0010864701
37	0xbc92411c	-0.017853312
38	0xbc99aa40	-0.01875794
39	0xbc5fd2b8	-0.013661079
40	0xbd0dcffe	-0.034622185
41	0xbb5414ea	-0.0032361099
42	0xbceb261a	-0.028704692
43	0x3cbc273f	0.022967933
44	0x3c1703e3	0.009217235
45	0xbbbc5f27	-0.0057486477
46	0x3a9ce38c	0.001196967
47	0xbc45d8ce	-0.012075616
48	0xbbb4efb3	-0.0055217384
49	0xbccc7d2a	-0.024962027
50	0xbcdc8825	-0.026920388
51	0x3c77ffbd	0.015136656
52	0x3c254da3	0.010089311
53	0xbd041ac4	-0.03225209
54	0x3ca470cb	0.020073315
55	0x3c6c930d	0.0144393565
56	0xbca74e40	-0.020423055
57	0xbbd22676	-0.0064132763
58	0x3c1e1b48	0.009650059
59	0xbca36021	-0.019943299
60	0x3cc86551	0.024462374
61	0xbc05eaf6	-0.008173695
62	0x3cf16da1	0.02947122
63	0xbd0765d8	-0.03305611
64	0xbc68167e	-0.014165519
65	0xbd12561b	-0.035726648
66	0xbcb57889	-0.022152202
67	0xbc83a962	-0.016071979
68	0xbcb8aedb	-0.022544315
69	0xbd01bcf7	-0.03167435
70	0x3c4cd063	0.012500855
71	0xbbafde67	-0.0053670886
72	0xbcc37baf	-0.023862688
73	0xbc675857	-0.014120183
74	0xbc7f58f9	-0.015585178
75	0xbc8a6dfb	-0.016898146
76	0x3ce3a3d0	0.027788073
77	0xbcb24207	-0.02176
78	0xbcc6c847	-0.024265422
79	0xbce0ca97	-0.027440352
80	0x3d085aa7	0.033289578
81	0x3cea5dd8	0.028609201
82	0x3c0974e5	0.008389686
83	0xbc21dea6	-0.009879744
84	0xbc186396	-0.009301087
85	0xbc8bc8cc	-0.01706352
86	0xbcc8bfa1	-0.024505438
87	0xbc651085	-0.013980989
88	0xbb314826	-0.002705106
89	0xbcde5b59	-0.027143167
90	0xbc251856	-0.010076603
91	0xbd1bb5ad	-0.038015056
92	0xbc339973	-0.010961878
93	0xbbe88309	-0.0070956987
94	0xbc65db7e	-0.014029382
95	0xbd146dcd	-0.036237527
96	0x3c975394	0.01847247
97	0xbd04f245	-0.03245761
98	0x3af3318a	0.0018554193
99	0xbd0ee57b	-0.03488682
100	0xba449bec	-0.0007500041
101	0xbcdbd0b4	-0.026832916
102	0xbd6587fc	-0.056037888
103	0xbd7b3382	-0.06132842
104	0xbd2fa8bd	-0.04288553
105	0xbd352ecd	-0.044234086
106	0xbad8c8ce	-0.0016539337
107	0xbbaf9a5a	-0.0053589763
108	0xbbfef9e3	-0.0077812537
109	0xbc9209f2	-0.017827008
110	0x3c27ab4e	0.010233713
111	0x3cdcab3b	0.026937118
112	0xbc8ecd7c	-0.017431967
113	0x3ce049fd	0.02737903
114	0xbcc9a405	-0.024614343
115	0xbd033efc	-0.03204249
116	0xb9392f95	-0.000176607
117	0xbb2d4085	-0.0026436162
118	0x3cd7f367	0.02636118
119	0xbc7bcf35	-0.015369226
120	0xbbae2cb9	-0.00531539
121	0xbcc9a5b2	-0.024615142
122	0xbd29977b	-0.04140423
123	0x3ca92db0	0.020651668
124	0x3c260abd	0.010134396
125	0xbc001124	-0.007816587
126	0xbc8a75e8	-0.016901925
127	0x3d1f01d5	0.038820107
128	0x3cccc373	0.024995541
129	0x3c435ab6	0.011923483
130	0xbb212b6c	-0.0024592532
131	0x3bf5dd04	0.0075031538
132	0x3a90815d	0.0011024881
133	0xbcf0149b	-0.0293067
134	0xbd1b2c1b	-0.03788386
135	0x3c03a6f5	0.008035411
136	0xbb42457e	-0.0029643471
137	0xbca1a966	-0.019734096
138	0xbc5386a8	-0.0129105225
139	0x3a37828a	0.0007000348
140	0xbaeba618	-0.0017978577
141	0xbc8a76a5	-0.016902277
142	0xbc8c4daf	-0.017126886
143	0xbbee2a89	-0.007268254
144	0x3cc9cb4b	0.02463307
145	0xbcad6567	-0.021166516
146	0xbbdf1465	-0.006807851
147	0xbcbdeb92	-0.023183618
148	0xbc25242a	-0.010079423
149	0xbac21a06	-0.0014808781
150	0xbc39c354	-0.011338074
151	0xbab1fbd2	-0.0013579077
152	0xbccd6f92	-0.025077615
153	0x3d8b230e	0.067937955
154	0x3d014018	0.031555265
155	0x3d562902	0.0522852
156	0x3da571c2	0.08078338
157	0x3d81a83a	0.06330915
158	0x3ce70557	0.028200788
159	0x3b9eeab5	0.0048497566
160	0x3c07db00	0.00829196
161	0xbc0932cf	-0.00837393
162	0xbc2146b3	-0.009843516
163	0x3ab904af	0.0014115776
164	0xbd3cda14	-0.046106413
165	0x3a5a81f8	0.0008335407
166	0xbcafff44	-0.021484025
167	0xbc939d8f	-0.018019466
168	0x3c863844	0.016384251
169	0xbab9827f	-0.0014153271
170	0xbcf119eb	-0.029431304
171	0x3d00a9b5	0.031411845
172	0xbd16fe12	-0.036863394
173	0xbcfc5379	-0.030801522
174	0xbccb202b	-0.024795612
175	0x3ae20f28	0.0017246949
176	0xbd37f8b5	-0.04491492
177	0xbd447acd	-0.047968674
178	0xbbf8a20d	-0.0075876773
179	0x3bfa9218	0.0076468103
180	0x3d1977fe	0.03746795
181	0x3d2994e0	0.041401744
182	0x3d72fd20	0.05932343
183	0x3d998b76	0.07497303
184	0x3d985ca6	0.07439546
185	0x3dc358a9	0.09538395
186	0x3d735a6e	0.059412412
187	0x3cdb2484	0.02675081
188	0x3c84dbf4	0.016218163
189	0x3d6b8b55	0.057505924
190	0x3d1b0172	0.037843175
191	0xbcd1897a	-0.02557825
192	0xbd0c1d6f	-0.034207758
193	0xbd0aae82	-0.03385783
194	0x3be83f8c	0.0070876535
195	0xbcb81b80	-0.02247405
196	0x3ce4a357	0.027909918
197	0xbc8afbfb	-0.016965857
198	0x3be6f85b	0.0070486492
199	0xbcb47c62	-0.022031967
200	0xbc21bfd5	-0.0098723965
201	0x3c85ed29	0.016348438
202	0x3c1b7b3e	0.009489832
203	0xbd775b3d	-0.060389746
204	0xbcd9f45e	-0.026605781
205	0xbd3fa647	-0.046789434
206	0x3be952b5	0.007120455
207	0x3bc8947c	0.0061212163
208	0x3cc764c9	0.02434005
209	0x3d1ff102	0.039048202
210	0x3ccc7e9b	0.024962714
211	0x3d458024	0.048217908
212	0x3dc2a2e7	0.095037274
213	0x3dba26ca	0.0908943
214	0x3dd2630a	0.102727965
215	0x3d28d086	0.04121449
216	0x3d363102	0.04448033
217	0x3c99ea92	0.01878861
218	0x3d4404f4	0.047856286
219	0x3d0e52f1	0.034747068
220	0xbd35c58e	-0.044377856
221	0x3ba662a6	0.005077678
222	0xbcadd9db	-0.021222046
223	0x3ccfb899	0.025356578
224	0xbc803388	-0.015649572
225	0x3c07995c	0.00827631
226	0x3bb677e5	0.0055684918
227	0x3cb6b9e6	0.02230544
228	0xbd35c412	-0.04437644
229	0xbcbd4061	-0.023101987
230	0xbd2ecdf7	-0.042676892
231	0x3a2e5996	0.00066509226
232	0xbac5ebb5	-0.0015100153
233	0xb9d1671b	-0.00039940406
234	0x3c15def4	0.009147394
235	0xbc45228b	-0.0120321615
236	0xbc09e9f3	-0.008417594
237	0x3d2eb29b	0.0426508
238	0x3d0cc33e	0.034365885
239	0x3cf2ae0f	0.029624013
240	0x3da61d26	0.081110284
241	0x3def73eb	0.116920315
242	0x3dbdaaf8	0.09261125
243	0x3d478c98	0.048718065
244	0x3d821b22	0.063528314
245	0x3d439742	0.047751673
246	0x3d5d2aaa	0.053995766
247	0x3c6312e0	0.013859481
248	0xbd17fd09	-0.037106548
249	0xbb905dd2	-0.0044057155
250	0x3c63dc81	0.013907553
251	0xbcccf02f	-0.025016872
252	0xbb873162	-0.00412576
253	0x3ce4f311	0.027947934
254	0x3c0a9a29	0.008459606
255	0xbcd24c41	-0.025671126

fc.bias f4 [10]
0	0xbd0b2624	-0.03397192
1	0x3c314f44	0.010822121
2	0x3c9cffd3	0.019164955
3	0xbc10911b	-0.008823658
4	0x3cb77e9d	0.022399241
5	0x3d07adde	0.033124797
6	0xbcd08297	-0.025452895
7	0x3c86bf4d	0.016448641
8	0xbba49d22	-0.0050236145
9	0xbc8f1295	-0.017464915
